app/src/main/assets/livenesss10_40.tflite (tflite, 643776 bytes, 146 tensors)

onnx_tf_prefix_/bn/BatchNormalization/sub f4 [1, 128]
00000000: b688 46c1 166e f5c0 813f 1fc1 d64e 32c1
00000010: 8458 81bf 4d82 2441 5730 3ac0 9688 49c1
00000020: 0d58 3741 72ed bb3f 321d 2e41 6f5c 3ac1
00000030: 14d8 2041 b24f 1741 ebdf c9be 0e56 bec0
00000040: 9f06 2bc1 f666 1341 233a ecc0 3010 7e3f
00000050: 3b68 3641 9f97 13c1 f813 1341 7e49 babf
00000060: 5ddf eb40 62ae 3041 f4a3 3ac1 2aac 2741
00000070: 8438 e240 0877 2941 f81f 3641 eb5c 2441
00000080: aeb0 2fc1 c1d2 bbbd 9386 3cc1 4e6c 38c1
00000090: ba7f 403f e03f 3241 6c7a 3c41 51f4 2dc1
000000a0: b68b 4e41 e812 46c1 ea3a 1dc1 fb4a 2fc1
000000b0: 3560 0c41 e0bb 32c1 6d9e 52c1 3a61 c540
000000c0: 4adf 1841 a180 3441 7c8f bbbf 8de9 2f41
000000d0: f3e0 3041 154f 3641 03d3 e1c0 985b 3b41
000000e0: 1430 28c1 832e 4cc1 4e4f 1cbf 7244 24c1
000000f0: ab8a 413f 8130 2ec1 ac14 ab3f c6aa 2e41
00000100: 9e28 4241 c5d8 073f 1d8d 28c1 c71f 31c1
00000110: db16 0d41 cd39 2ec1 a51b 33c1 25cc 0741
00000120: 2037 3441 66ce 4941 9a4b 2bc1 c70c 8bbf
00000130: 3d1d 3041 ad7d 1dc1 646e d4bf f8dc 3641
00000140: 87f2 2141 0dfc 4641 1448 d03e 832c 29c1
00000150: e5af 2841 85fc f7c0 51bc 37c1 5d4a 24c1
00000160: 7559 9d3f 71d8 2e41 0d2c 2fc1 0590 1b41
00000170: 926d 1a41 df01 4141 cba1 19c1 96b7 0ac1
00000180: b363 1141 6b96 31c1 9c60 44c1 3de5 07c1
00000190: 177e 45c1 1f88 cabf 8687 2dc1 ed66 36c1
000001a0: ac71 1f41 cda2 edc0 5669 1f41 a80a 28c1
000001b0: 6d57 38c1 8169 87bf 7ca7 eec0 86de 24c1
000001c0: e7fd 2cbf 2327 3641 9c12 30c1 10e8 3ec1
000001d0: 1d1d 2441 ef88 4541 9f03 2dc1 ddf7 8d3c
000001e0: 30f3 16c1 9dd7 3441 ad82 42c1 703c 32c1
000001f0: a502 1341 750d eac0 19ac 2b41 61a1 2341
-12.408377 -7.669688 -9.953004 -11.144247 -1.0105138 10.281812 -2.9092004 -12.595846
11.458997 1.4681838 10.882128 -11.647567 10.052753 9.456957 -0.39428648 -5.9480047
-10.6891165 9.212637 -7.382097 0.9924345 11.400447 -9.224517 9.192375 -1.4553678
7.371016 11.042574 -11.665028 10.479532 7.069399 10.59156 11.382805 10.272685
-10.980635 -0.091710575 -11.782855 -11.526442 0.75194895 11.1405945 11.779888 -10.872148
12.909109 -12.379616 -9.826883 -10.955806 8.773488 -11.170868 -13.163678 6.1681185
9.554514 11.281404 -1.4653163 10.994519 11.054919 11.394307 -7.0570083 11.709862
-10.511738 -12.761355 -0.6105851 -10.26671 0.75602216 -10.886842 1.3365684 10.916693
12.134916 0.5306514 -10.5344515 -11.070258 8.81808 -10.8891115 -11.194249 8.48734
11.263458 12.61289 -10.705957 -1.0863274 11.007138 -9.843183 -1.6596189 11.428947
10.121711 12.436536 0.4067999 -10.573367 10.542943 -7.749575 -11.483476 -10.268155
1.2292925 10.927842 -10.948255 9.722661 9.651751 12.062957 -9.602 -8.669821
9.086841 -11.099223 -12.273586 -8.493466 -12.343284 -1.5822791 -10.845587 -11.400128
9.965252 -7.426123 9.963217 -10.502602 -11.521344 -1.0579072 -7.457945 -10.304327
-0.67574924 11.384555 -11.004543 -11.931656 10.257108 12.345931 -10.813384 0.017330104
-9.434372 11.30264 -12.156903 -11.139755 9.188146 -7.3141427 10.729516 10.226899

Const_100 f4 [26, 1, 1]
00000000: 2b57 473b fa44 273a be16 a2bc 757c 053c
00000010: d13a 76bc 76d2 423b 8e77 6dbb 172e fdbc
00000020: abbf 81bc e771 c6bc 323f 64ba f74d d9bc
00000030: 27a9 cbbc 05d2 44bc 9118 84bc a803 853c
00000040: 5c65 393b 989f 573c 1014 96bc de3a bcbc
00000050: ccbc 153c e2a7 b2ba 467f 0d3c 0fe9 2c3d
00000060: dfaf 2fbc acf1 04bb
0.0030416946 0.0006380823 -0.019786235 0.008147349 -0.015028671 0.0029727495 -0.003623459 -0.030905766
-0.015838465 -0.024224235 -0.00087069266 -0.026526434 -0.024860932 -0.012012963 -0.016124995 0.016237095
0.0028289175 0.013160609 -0.018320113 -0.022977289 0.009139251 -0.0013630355 0.008636301 0.04221445
-0.010723083 -0.002028565

Const_103 f4 [26, 1, 1]
00000000: 35d9 a23c 58cc ee3c b7c5 80ba 035c 463c
00000010: 5a9b 333a b759 7e3c 0a30 0e3c 2fbb aabc
00000020: 419b 90bb 9ef8 96ba afec e4bb b5fc 0c3e
00000030: 6326 c43c f6fa 01bd 65eb d73b 6bf0 7e3c
00000040: f724 8cbc baa2 9ebb 9d3c ae3c 4468 233d
00000050: 244a b73c e858 4cba 9dd0 15bc 2764 acbb
00000060: c815 a53b ebbd b3bc
0.019878963 0.029150173 -0.0009824549 0.012106898 0.00068514573 0.015524319 0.008678446 -0.02084121
-0.004413039 -0.0011518185 -0.0069862227 0.13768275 0.023944085 -0.031733476 0.0065893405 0.01556025
-0.01710747 -0.004841176 0.021269137 0.039894357 0.02237422 -0.00077952305 -0.009143976 -0.0052609625
0.005037997 -0.021941146

Const_107 f4 [32]
00000000: 4ed0 8bbd 1041 3ebe 8b8c 0ebe a435 c1bd
00000010: f3c9 22be 4f67 c9bd faf4 07bd 0008 9fb9
00000020: 0ca0 89bc 8ce6 69bd 489b 27bd 0fb7 57be
00000030: d99d 063e 1794 e8bd 0276 52be c70f 20bd
00000040: 680d 30bc 66e5 87bd 7343 ccbd 9e65 41bd
00000050: 63ec 8dbd 5e27 b6bd 5ac1 58be f4d1 f6bd
00000060: 9887 b9bd 3c4b 81bc c81b 3fbe d5d7 81be
00000070: 578e 043d d85d 3fbe 5ac2 edbd 64ec 60bd
-0.0682684 -0.18579507 -0.139208 -0.09434059 -0.1589735 -0.09834158 -0.033192612 -0.00030332804
-0.01679995 -0.057104632 -0.040919572 -0.21065925 0.13146152 -0.11356371 -0.20552829 -0.039077546
-0.010745384 -0.06635551 -0.099738024 -0.04721605 -0.06929853 -0.088942274 -0.21167508 -0.12051764
-0.090590656 -0.015782945 -0.18662941 -0.2535998 0.03236231 -0.18688142 -0.11609335 -0.05491294

Const_11 f4 [103, 1, 1]
00000000: 63ba 95be f641 17bb 5ebb aaba b3e3 933d
00000010: a0e7 823b 408a a53d 5223 343d c8b2 eebb
00000020: 7897 e73d e12b 2d3d a1e1 6bbe c58d 0d3c
00000030: e507 3dbc f730 973d 20ae aabb 6c72 f1bc
00000040: 6101 b8be 8030 0d3d 4b09 ce3d 1155 99be
00000050: 644c 77be e9d0 45bc 7421 823d 50b9 433d
00000060: 071c d2bc cd23 823c 51a8 76bc 134c 023e
00000070: 17b4 66ba 0e79 73bd 815a 523b 0790 d4bc
00000080: 9a9f 1e3a 4c2d 053d af5a 023b 0a24 d6bd
00000090: 2134 09bc d244 10bd b8a6 0d3e 898c 083d
000000a0: b0ae 7abe e5b6 603c a250 4b3c 9f81 b73c
000000b0: c4c6 e33d 6915 993d 95e7 343d 3ace 18be
000000c0: 128f a5bd f2cd 36be cf78 89bd 01e7 243d
000000d0: b19e 603d c9f0 c8bd 6e37 9bbd 20a6 673d
000000e0: a092 163c 40f7 a6bd a50e 593d 17dd 7c3d
000000f0: e529 55bd a646 f9b9 f52b 0bbc 79af 9b3b
00000100: 6d74 cdbd 2223 7cbd 5a91 71be f24a 0e3c
00000110: 63af c0bc d9e5 2a3d 030d 61bd 3bdb 94bd
00000120: f7c6 c83b 3732 b0bd 3d86 6fbd 5890 43bd
00000130: debd 0e3c ae85 6cbd bdf4 19bb 6da4 893d
00000140: 6544 a73c 8d87 3ebd c707 50be 7a96 7abe
00000150: cd55 e6bd f0dd 4a3d 5a73 0ebd 3fc0 8d3c
00000160: 569c 663c f699 0dbc 803a 0ebe 570d 0a3d
00000170: fd92 fabd 80c2 4b3c 02d9 a2bc 3bd7 11bc
00000180: daf7 133d ba48 21be 0399 903b 9d55 1dbc
00000190: 55fd a73d f37c 8e3c 7143 15bd
-0.29243764 -0.0023080087 -0.001302581 0.072211646 0.003994897 0.0808301 0.043978997 -0.007284496
0.11308187 0.042278174 -0.2303529 0.0086397575 -0.011537527 0.07382386 -0.0052087456 -0.029473506
-0.35938552 0.03447008 0.10060366 -0.29947713 -0.24150234 -0.012073734 0.06354037 0.04778415
-0.02564813 0.015886212 -0.015054778 0.12724333 -0.0008800639 -0.05944162 0.0032097402 -0.025947584
0.0006051004 0.0325139 0.0019890477 -0.10456093 -0.008374245 -0.035221882 0.1383313 0.03333715
-0.244807 0.01371548 0.012409361 0.022400675 0.11121896 0.07474787 0.044166166 -0.14922419
-0.08083929 -0.17852 -0.067124955 0.040259365 0.05483884 -0.09811551 -0.07578932 0.056554914
0.009190232 -0.08152628 0.05299248 0.061734285 -0.052041907 -0.00047545618 -0.008494367 0.0047511426
-0.10031972 -0.061556943 -0.23590603 0.008684861 -0.02352113 0.041723106 -0.05494405 -0.072683774
0.006127234 -0.08603328 -0.05847763 -0.04774508 0.00871226 -0.057744674 -0.0023491823 0.06720815
0.020418355 -0.04651599 -0.20315467 -0.24471465 -0.11246834 0.049528062 -0.034777977 0.017303584
0.014075359 -0.008642664 -0.13889503 0.033704128 -0.12235067 0.012436509 -0.019878868 -0.008901413
0.03612504 -0.15750399 0.0044127717 -0.009602931 0.08202616 0.017393565 -0.03644127

Const_112 f4 [308, 1, 1]
00000000: 931f 0abe 858d 0f3a 8765 8db8 73ae 55bd
00000010: 51d6 eab7 edd3 9ebd 1981 21b6 5126 2db8
00000020: 0a31 2238 dad1 71b8 0d49 adbc 4e95 1dbe
00000030: f247 fb37 876c 9bbb 7d87 10b7 e636 013c
00000040: 32dd 81bd 245f febc 9a84 beb7 b8bd 4937
00000050: 3ad4 803b 36b7 3bb9 5f05 ecbd 34e1 2fbd
00000060: 08ad 7cbd a911 90b7 7a5a d5b9 cea3 ecb7
00000070: 3c66 80b7 fa48 b1bd e471 44b9 48e8 54bd
00000080: 48dc 13bc fd5c b3b7 8a0f 0e3c 089d ffb6
00000090: da8e 18b7 83a5 d53b 8176 aa3b b2cd 28b8
000000a0: 32e7 19b8 e099 26b8 2d3a 5dbd 35ad 3bb8
000000b0: ceac 7eb8 5c68 beb8 131b 0e3c 87e5 bb39
000000c0: f450 23be 52d5 1abe 8218 76b7 c71f fbbd
000000d0: 6518 63b8 50b2 263d 6161 54b8 a704 c2bd
000000e0: 37e9 9db8 6438 9cbd 797a ec3a df4d 03be
000000f0: f100 a13b 79db ba3c 89cf e6bd 63a2 a8bd
00000100: 5e61 2abc 18c6 4f3d 40ed 39b8 dc5a 11b8
00000110: 4c95 cf3c c4c3 e9bd cf13 023b 3f2b 17be
00000120: d422 2eb8 5a04 b0bc ff26 b6b7 bccb f7b7
00000130: 4da3 2fbe 5d1f 3cbc 3520 143c bf4e 8fb8
00000140: f64a 5bb7 91f9 81b8 6ed2 32b7 df60 09be
00000150: d575 503b 3081 21b9 d6b0 1fb7 af66 2d3c
00000160: 7ce6 143c d565 8bb8 429e 583b 0c0f 19be
00000170: 63f5 48bb d0aa 1dbe 4a07 4eb8 6a6b a93c
00000180: 6d91 e1b8 c9d0 a3b7 1baf 9dbd 63b7 f0b6
00000190: 0bda 7ab8 ec01 46b8 75c8 2a37 a0c9 5f36
000001a0: 5b5f 6b38 1532 113d 6d25 d537 7203 95b7
000001b0: 941a 42b8 305b cabd 58b4 3bba 610a d5bb
000001c0: 5e96 aa3b b297 1c3a 19c9 a6b8 f9c8 c43c
000001d0: 2757 02be 29e3 abb8 e2f5 c4bc 6aa5 febc
000001e0: ac47 83b5 7a0a dab8 9c2b 083d 16db c1b7
000001f0: f302 8e3c 0444 9db7 0fa1 013c f0a0 25bd
00000200: 2f15 a9bd d4f3 3237 126f 2f3c ac35 4bb8
00000210: 0b4e 71b8 c716 833c fbab 9037 f194 f3b9
00000220: df9a ceb8 94ef 0cb8 a47a 2abe f82a 54b8
00000230: ec41 9bbd 8bde adb6 259f 1fbe 6391 ccbc
00000240: b9e7 1ebe 69a9 d93c ddac 4eb8 5e00 edb7
00000250: 1e8a 71b6 85ee ea3a 1a33 8aba 0459 3bb6
00000260: 37cf 8bb6 d6af 673d 07e3 1c3b 4e16 fa3b
00000270: 4b93 fdb8 11a6 1eba a18a 0fb9 5d69 093b
00000280: 26e8 0bbe de56 a3b5 fa40 b5b8 767d 30be
00000290: 00e4 edb7 f967 e5b4 cc43 59bc 8966 96b7
000002a0: a89a b0b6 3e8a 11be bd85 413a d805 003a
000002b0: c18e 953c 5398 54b7 747c e13b 3d3d dc3b
000002c0: 7014 34b8 102a 4937 8d79 c9b7 8e3a 7ebc
000002d0: 3efa d9b7 bbbf 8ab6 49f2 153d 2257 4d3c
000002e0: 3b79 70b8 01ad a0b8 94ad a8b7 02e8 07bd
000002f0: 63e7 7336 28ae 1a37 1687 81b7 dbfd 35b7
00000300: d4eb d8b7 dff3 15be 9c02 58be 5687 65b7
00000310: e423 70b9 acf2 4abc a356 603c 3b79 c3bd
00000320: 212b 25b7 b7b7 35be 5890 27b8 4795 2238
00000330: 7b47 5bbd 3715 63b7 9f53 b53c 50fb 383d
00000340: 623e aa37 ea2f 8fbc c153 fabd 4db9 bebc
00000350: 68e9 353d aa3c 01be 30fa 05be 4004 59bd
00000360: fec3 0c3d 8225 ef3c a53b 71b7 2fbc 013c
00000370: f1fc f5b7 80f3 033b b571 483c 76a6 273c
00000380: a2ad 36be ff8a 88b8 44bd e0b7 a984 533d
00000390: 8028 8e37 f5e7 b7b8 0b0d e5b7 7585 03b9
000003a0: 7cfe 4fb8 3a20 a0b8 2fae 4cbd 6324 17be
000003b0: c051 b1bd 647a 13be 2ff3 3b3c 24ce edb8
000003c0: bde3 073e 95ef 0cbe 70ae 0abd 74f8 dfbd
000003d0: fda6 ae3a 7c42 47b8 0e9c 2d3b d304 81b7
000003e0: c44c 543d 8cce 4937 a425 543c c5bd 7a3c
000003f0: 697d 92b8 94f0 04be 0cbc f8b7 694e 463a
-0.13488607 0.0005476105 -6.742315e-05 -0.05216832 -2.7994773e-05 -0.077552654 -2.4066014e-06 -4.12821e-05
3.866948e-05 -5.7654317e-05 -0.021152997 -0.15388986 2.9955034e-05 -0.004743162 -8.614615e-06 0.007886624
-0.06341018 -0.031051226 -2.2711512e-05 1.2024706e-05 0.0039315494 -0.00017901961 -0.11524462 -0.04293938
-0.061688453 -1.7174361e-05 -0.00040693936 -2.820967e-05 -1.5306396e-05 -0.08656497 -0.00018734444 -0.051979333
-0.009024687 -2.1381764e-05 0.008670697 -7.617873e-06 -9.093166e-06 0.0065199747 0.005202115 -4.024589e-05
-3.669336e-05 -3.972079e-05 -0.05401056 -4.4745586e-05 -6.0719256e-05 -9.0793445e-05 0.008673447 0.0003583843
-0.1594885 -0.15120438 -1.4668449e-05 -0.122619204 -5.4143737e-05 0.040697396 -5.063543e-05 -0.094735436
-7.529783e-05 -0.07627943 0.0018041871 -0.12822674 0.0049134423 0.02280973 -0.11270053 -0.08234098
-0.010399191 0.050726026 -4.4328393e-05 -3.4655313e-05 0.025339745 -0.114142925 0.0019848233 -0.14762591
-4.151727e-05 -0.02148645 -2.171425e-05 -2.9539566e-05 -0.17152138 -0.011482087 0.009040882 -6.833439e-05
-1.307087e-05 -6.197685e-05 -1.0658621e-05 -0.1341586 0.0031808515 -0.00015402283 -9.518311e-06 0.010583564
0.009088155 -6.647004e-05 0.0033053313 -0.14947146 -0.003066384 -0.15397191 -4.9121016e-05 0.020681102
-0.00010755924 -1.9528337e-05 -0.07699414 -7.1739064e-06 -5.9807713e-05 -4.720867e-05 1.0179462e-05 3.334695e-06
5.6117173e-05 0.035448153 2.5409006e-05 -1.7763788e-05 -4.6277957e-05 -0.09880674 -0.0007160357 -0.0065014814
0.0052059134 0.0005973532 -7.952954e-05 0.024021612 -0.12728558 -8.196227e-05 -0.024043027 -0.031084735
-9.78112e-07 -0.000103970015 0.033244714 -2.3109413e-05 0.01733539 -1.874753e-05 0.0079119345 -0.040436685
-0.082559936 1.0666397e-05 0.010707634 -4.8448957e-05 -5.753156e-05 0.016002072 1.7246222e-05 -0.00046459542
-9.8516924e-05 -3.3601726e-05 -0.16648346 -5.0584757e-05 -0.07580933 -5.181709e-06 -0.15588053 -0.02497167
-0.15518083 0.026570039 -4.927522e-05 -2.8252773e-05 -3.5992193e-06 0.0017923868 -0.0010543794 -2.7916985e-06
-4.166646e-06 0.056564175 0.002393903 0.0076320535 -0.000120914156 -0.00060519675 -0.00013689186 0.0020967342
-0.13662776 -1.2169728e-06 -8.6428554e-05 -0.1723536 -2.8358772e-05 -4.2730224e-07 -0.013260793 -1.792914e-05
-5.263213e-06 -0.14212891 0.0007382294 0.0004883683 0.018256547 -1.267165e-05 0.006881291 0.0067211674
-4.2934378e-05 1.1990327e-05 -2.4017669e-05 -0.01551689 -2.5984944e-05 -4.135041e-06 0.036608014 0.012532981
-5.7333364e-05 -7.661619e-05 -2.010799e-05 -0.033180244 3.6344506e-06 9.219664e-06 -1.5440903e-05 -1.0847546e-05
-2.5859023e-05 -0.1464381 -0.21094745 -1.3680974e-05 -0.00022901554 -0.012386959 0.013692531 -0.09544607
-9.844808e-06 -0.17745863 -3.9950333e-05 3.8762835e-05 -0.053534966 -1.3535194e-05 0.0221346 0.045161545
2.0294628e-05 -0.017478902 -0.12223006 -0.023281718 0.044412047 -0.12620798 -0.1308372 -0.05298257
0.0343666 0.02919269 -1.43786065e-05 0.007918402 -2.9324061e-05 0.002013415 0.012234141 0.0102325585
-0.17839673 -6.5108754e-05 -2.6791015e-05 0.051640186 1.6946578e-05 -8.769325e-05 -2.7305001e-05 -0.0001254285
-4.9589653e-05 -7.635397e-05 -0.049970802 -0.14759974 -0.08658171 -0.14402157 0.011471554 -0.00011339437
0.13270469 -0.13763268 -0.033857763 -0.109360605 0.0013324913 -4.7507216e-05 0.002649072 -1.5380245e-05
0.051831022 1.2028624e-05 0.012948427 0.015304034 -6.985182e-05 -0.12982398 -2.965147e-05 0.00075647846

Const_115 f4 [308, 1, 1]
00000000: d85e 9d3a 7a00 6dbd 4267 1038 cbca cabc
00000010: 11f9 a8b6 db2b 29bd b37a 7e38 ae27 56b7
00000020: b469 2137 32cb beb5 7a25 d7bd 0a98 603c
00000030: 0ef4 d9b7 696d d4bd 12ed 2ab8 e3d1 05bd
00000040: 71d7 20bd 40f9 863a 1f3f feb7 ac6e 7f34
00000050: 8a1e 17bd 8ee8 05b9 6afe 4dbd 49ce 823c
00000060: 8f9c 0dbd 8258 c0b7 0f6d e4b8 51a1 e5b6
00000070: 49c9 0138 4936 8fbd 91a1 08b8 d182 9cbc
00000080: 4e7f 47bc 09ac a9b7 6a5a 47bd 0af3 b0b8
00000090: 5297 22b8 2b43 26bc 796b c8bc 4b44 bdb8
000000a0: f77a 2038 84bb adb8 4eda 80bd c49a 8833
000000b0: 89aa 8ab7 9af1 1eb8 0a18 4cbd 069b 50bd
000000c0: 904e b3bc 6d1b 013a 7a72 0337 dcdc 71bc
000000d0: 4fac 0238 e466 eebd c88d a0b8 5cf1 31bc
000000e0: 66a9 8f37 d3cd 77bb 612c b6ba 32b8 54bc
000000f0: 398d 61bb 6579 173c 75ae 53bd a968 0b3b
00000100: 142c b7bc 13e2 ecbd c8ab f9b7 60e4 96b7
00000110: a27b b2bd b39f afbd e209 f0ba 0d36 933b
00000120: 8cc6 8db8 6f46 a73c 37ae b9b8 b7e3 b4b8
00000130: 1997 113a 818e 01bc 8537 34bc 476a aab7
00000140: 9b74 87b7 8a73 1db8 d01f 3db8 6c5a b33c
00000150: 9d38 38bc 8fb8 b0b8 aab4 dfb7 c3af babc
00000160: bd63 9cbc ed74 4db8 3255 f7bb 2bb9 9a3b
00000170: b72f f2bd 45fe 96bc 696c 5039 e50a 56bd
00000180: 31dd 0db8 c8c5 13b9 7731 9dbc 4f5e 92b6
00000190: 9e4f e0b7 33fb a3b8 cf68 6bb8 f91b 31b8
000001a0: 88ae 4537 e11f 91bd 2c66 10b8 bfcd 6bb7
000001b0: 49a8 c5b7 9995 fdbc 17c3 1aba ec3f f1bb
000001c0: f956 00bc 7465 0cbb f654 79b8 1f87 14bd
000001d0: a93a 9bbc 7e11 a8b8 80e8 363a afdc 0fbd
000001e0: 02be 16b9 b6ff 21b8 887d dfbd fc07 0e37
000001f0: f7b8 17bd e5aa 1835 62e9 36bd 7439 75bc
00000200: cc93 adbd dc06 aa36 20a0 19bd 154e e437
00000210: 72e0 41b6 16cd 2fbd 0bc2 3ab8 a5b6 3cbd
00000220: a581 84b8 c432 7737 4366 fc3a 5723 dfb8
00000230: 7c68 97bd 225d 15b8 3719 ac3c 79b5 2ebc
00000240: ea77 ad3c 82ba 9ebd 9af7 bfb6 236f a138
00000250: 4bca 0cb8 9d33 97bb 5ddc fcb8 3480 8e38
00000260: 6548 b6b8 65cf 97bd 26c0 83bc c7cd 81bc
00000270: 6707 f9b8 94c2 c8ba dfb0 94b7 4be3 60bc
00000280: 91c6 a63b 4d28 13b6 317b 6037 68fb de3a
00000290: 6146 43b7 cb02 1bb8 6312 763c 5ff2 dbb8
000002a0: c011 a3b9 4a75 f5bc c20d 00bc 85cf ab39
000002b0: 7115 babc 7ec5 f3b7 c2e8 bfbc 45d3 63bc
000002c0: b111 a8b9 18b8 0ab9 e0ca c0b6 5543 b83b
000002d0: a26f e1b6 fddc 41bb 2ee9 55bd 0312 acbc
000002e0: 2890 cdb8 b7b4 2cb8 58fe 30b8 6c8a 243c
000002f0: 9d84 eeb7 d45a bdb8 96fd 5738 cded 2bb4
00000300: 602d 32b7 a63a 343b 1f04 4c3b 6cc9 4739
00000310: 0cfd edb8 0b9e c0bc 3ab6 05bd de23 20bd
00000320: d960 4438 6b93 8a3b 5941 26b8 9d20 4936
00000330: c5a0 8abd e708 19b8 abf5 15bd ad67 8fbd
00000340: 3e8a dd36 f298 22bc 935d c83a 10a9 babd
00000350: fe31 b0bd 956c cebc 1721 86bc ebe6 eabc
00000360: 6a95 75bd 05e2 63bd 4b91 bab7 1301 81bc
00000370: 47cd 2d38 5aeb 04bd 9b2d 54bc db38 f5bc
00000380: e20e d83a 13f5 c0b8 1348 ccb8 2ff8 5cbd
00000390: 7998 01b7 2ca4 aeb8 adb8 21b8 8ca0 1db8
000003a0: e78b af39 ec47 c0b8 eb8d 47bd 4ef5 213c
000003b0: 38d0 a0bc 41d9 d339 5c4d e5bb daf6 55b8
000003c0: 17db d5bd c46e 803a 154f abbc b433 563b
000003d0: 9d8c 8cbc ab16 d6b8 673f f2bb e2dd 3939
000003e0: bd84 abbd 2dcf dcb7 2d76 d3bc d3f0 873c
000003f0: 5674 ebb8 b065 3abe 2605 1738 a6a9 06bb
0.0012006415 -0.057861783 3.442844e-05 -0.024754902 -5.0357853e-06 -0.04130159 6.067259e-05 -1.2764633e-05
9.620959e-06 -1.4215241e-06 -0.10505195 0.013708124 -2.5982063e-05 -0.10372431 -4.0751947e-05 -0.032670867
-0.03926796 0.0010297671 -3.0308553e-05 2.3788988e-07 -0.03689436 -0.00012770502 -0.050291456 0.015967505
-0.034573134 -2.2929398e-05 -0.00010892201 -6.8435115e-06 3.0943458e-05 -0.06992776 -3.2575397e-05 -0.019105347
-0.012176348 -2.022648e-05 -0.04867021 -8.4376035e-05 -3.8764738e-05 -0.01014785 -0.02446531 -9.024943e-05
3.8261493e-05 -8.28421e-05 -0.06291638 6.361145e-08 -1.6530294e-05 -3.7895144e-05 -0.049827613 -0.050929092
-0.021888047 0.0004925046 7.834862e-06 -0.01476213 3.115489e-05 -0.116407186 -7.655803e-05 -0.010860767
1.712581e-05 -0.003781189 -0.0013898724 -0.012983369 -0.003441645 0.009245251 -0.051680047 0.00212721
-0.022359885 -0.11566558 -2.9763105e-05 -1.7987739e-05 -0.08714987 -0.08575382 -0.0018313492 0.0044925273
-6.760386e-05 0.020419328 -8.8539375e-05 -8.625484e-05 0.00055538263 -0.007907511 -0.010999565 -2.0315068e-05
-1.6147553e-05 -3.753932e-05 -4.509074e-05 0.021893702 -0.011243966 -8.426711e-05 -2.66678e-05 -0.022788888
-0.019090528 -4.8984704e-05 -0.007547998 0.004721781 -0.11825507 -0.018431792 0.00019876812 -0.052256484
-3.382302e-05 -0.00014092692 -0.019188626 -4.362118e-06 -2.6739956e-05 -7.819235e-05 -5.6125977e-05 -4.222614e-05
1.1782751e-05 -0.070861585 -3.442743e-05 -1.40549955e-05 -2.3562594e-05 -0.030955123 -0.00059037044 -0.0073623564
-0.007833236 -0.0021422775 -5.9445352e-05 -0.036261674 -0.01894887 -8.0141224e-05 0.0006977394 -0.03512257
-0.00014375898 -3.862354e-05 -0.10912615 8.465719e-06 -0.03704163 5.6873097e-07 -0.044656165 -0.014967311
-0.08475456 5.0671933e-06 -0.037506223 2.7216078e-05 -2.8889885e-06 -0.042920195 -4.4526572e-05 -0.04607262
-6.318399e-05 1.4734167e-05 0.0019256551 -0.00010640051 -0.07392976 -3.5611105e-05 0.021008117 -0.010663384
0.021175344 -0.07750417 -5.721068e-06 7.697779e-05 -3.3567e-05 -0.004614307 -0.00012057342 6.794967e-05
-8.691921e-05 -0.07412604 -0.016082834 -0.015845193 -0.00011874624 -0.0015316778 -1.7725337e-05 -0.013726066
0.005089589 -2.1928165e-06 1.3380123e-05 0.0017012181 -1.1639292e-05 -3.695748e-05 0.015019032 -0.00010487879
-0.00031103007 -0.029963154 -0.00781578 0.00032770276 -0.022715302 -2.9059822e-05 -0.023426417 -0.013905351
-0.00032056638 -0.00013229286 -5.7456637e-06 0.005623261 -6.7185183e-06 -0.0029581182 -0.05222433 -0.021004682
-9.802013e-05 -4.11763e-05 -4.2198546e-05 0.010042768 -2.8433564e-05 -9.02914e-05 5.1496165e-05 -1.6012127e-07
-1.06201915e-05 0.0027500778 0.0031130386 0.00019053154 -0.00011348174 -0.02351286 -0.032644488 -0.039096706
4.6820238e-05 0.0042289994 -3.9638344e-05 2.9970317e-06 -0.067689456 -3.6486334e-05 -0.03661124 -0.070021965
6.6024068e-06 -0.00992416 0.0015286676 -0.09114277 -0.08603285 -0.02519826 -0.0163732 -0.028674563
-0.059956945 -0.05563547 -2.2240585e-05 -0.015747583 4.1437594e-05 -0.03245101 -0.012950326 -0.029934337
0.0016483928 -9.200922e-05 -9.740903e-05 -0.053947624 -7.7244995e-06 -8.327546e-05 -3.8557384e-05 -3.7581238e-05
0.00033482836 -9.16867e-05 -0.048719328 0.009885145 -0.019630536 0.00040406923 -0.0069977473 -5.1013056e-05
-0.10442179 0.0009798636 -0.020911733 0.0032684626 -0.017156893 -0.000102085374 -0.007392812 0.00017725633
-0.08374927 -2.6322517e-05 -0.025813187 0.016594326 -0.000112273425 -0.18202853 3.6006e-05 -0.0020547896

Const_120 f4 [26, 1, 1]
00000000: 861d 9a38 5436 0039 9568 b538 c39e cb38
00000010: 74c2 c638 751f eb36 4c3d 6139 08d1 7db7
00000020: d860 ec38 5781 6d38 d18d 9239 b0de 3139
00000030: 4dd8 81b8 ff33 1139 97c8 2239 7bd1 1739
00000040: 3144 9939 501b e7b8 6af9 08bc 28a9 d639
00000050: cc4f da39 298c 6c39 4cd7 fb38 0cdd ba37
00000060: 8921 b7b8 8ccb 703c
7.3487914e-05 0.0001222727 8.6502325e-05 9.709366e-05 9.4775954e-05 7.007208e-06 0.00021480507 -1.5128644e-05
0.000112713955 5.662566e-05 0.00027952951 0.00016962993 -6.1914885e-05 0.00013847648 0.0001552425 0.0001447852
0.0002923324 -0.00011020026 -0.008360246 0.00040943292 0.00041639654 0.00022558928 0.00012008715 2.227586e-05
-8.7323664e-05 0.014696967

Const_123 f4 [26, 1, 1]
00000000: b6b0 e6b8 4f83 1d38 4f62 b937 24b5 5838
00000010: cd0c eb38 f6dd 21b9 66fc ae38 c691 95b8
00000020: 1b83 9337 30fa feb6 32fe 17ba 8485 30b9
00000030: 4485 0339 9911 d738 5d85 0739 c01f d9b9
00000040: 6be4 8bb9 93fe 31b8 5bd6 bcbe b31f 97b9
00000050: e709 0eba fffe b1b9 4129 5b38 46a5 6536
00000060: aee4 16ba 9e2f 4c3a
-0.000110001696 3.7554008e-05 2.2099497e-05 5.1667113e-05 0.000112080575 -0.00015436843 8.3439794e-05 -7.132026e-05
1.7584816e-05 -7.5989155e-06 -0.0005798071 -0.00016834406 0.00012542779 0.00010255277 0.00012924285 -0.0004141312
-0.0002668233 -4.243718e-05 -0.3688229 -0.00028824582 -0.00054183457 -0.00033950058 5.225209e-05 3.421986e-06
-0.0005756122 0.0007789078

Const_128 f4 [26, 1, 1]
00000000: 6bd3 b036 4a6d 31ba ed72 6038 9de8 2b3a
00000010: a24c bc38 ce18 5438 8864 4638 90f8 68b4
00000020: 0e6b 8937 b81e a239 ffda c638 62a8 1e38
00000030: bb0e 6a38 e0fa 4139 4ceb 8f37 da9e 8b38
00000040: c55f b437 d85d 21bb c16a 7038 8293 4b39
00000050: 20ee 7eb8 48b2 99b8 a3ec 7cb7 12c1 9738
00000060: 2c5a 6b37 fb50 df38
5.269821e-06 -0.00067682995 5.3512795e-05 0.00065577944 8.9788125e-05 5.056784e-05 4.7300506e-05 -2.169711e-07
1.6381524e-05 0.00030921935 9.482167e-05 3.7826954e-05 5.5803666e-05 0.00018499373 1.7156497e-05 6.657625e-05
2.1502268e-05 -0.0024622586 5.731988e-05 0.0001941454 -6.078009e-05 -7.328816e-05 -1.5075467e-05 7.236203e-05
1.4028086e-05 0.000106485524

Const_131 f4 [26, 1, 1]
00000000: f500 b738 a52d eab7 8825 c838 f101 133a
00000010: 6317 0939 2e32 d535 682f 4a38 099e 85b8
00000020: dfee 2439 68f4 2eb9 bcbd 6839 2de4 1cb9
00000030: 3c95 7c38 148f a6b9 7ccb 1138 5112 99b9
00000040: 2996 0239 5627 be3c 83f0 6636 ce28 9d39
00000050: 98b7 0d38 f2eb ac37 cdc3 8ab8 3795 8638
00000060: d777 a7b7 d70b c438
8.726298e-05 -2.7916229e-05 9.543734e-05 0.0005607894 0.0001307405 1.5884341e-06 4.8204703e-05 -6.3713705e-05
0.00015729245 -0.00016684982 0.00022195926 -0.00014962321 6.0220467e-05 -0.0003176859 3.4760204e-05 -0.0002919608
0.00012453705 0.023212116 3.4412667e-06 0.00029975775 3.3788005e-05 2.0613868e-05 -6.6168235e-05 6.417411e-05
-1.9963756e-05 9.348214e-05

Const_135 f4 [32]
00000000: 79b2 f3b9 ab68 58ba 6d35 85b9 9bdc f6b9
00000010: bb85 95b9 c851 85b8 ea9d b3b9 5c7e 32b9
00000020: b07a 22ba ff9a c4b9 e8ca f137 9a84 a4b9
00000030: 751b 00ba 70e3 4cb9 b84d aeb7 624f 17ba
00000040: 7205 b7b8 80c4 70b9 e506 80b9 0738 26b8
00000050: 3f70 43b9 06f9 c4b9 a1ad 94b9 5b36 30b9
00000060: 83a1 79b9 7260 7db8 eedb 9cb9 f643 4aba
00000070: cce2 e4b9 c30c cbb9 b469 b0b7 a11b 93b9
-0.00046481544 -0.0008255343 -0.00025407542 -0.0004708514 -0.00028519132 -6.357167e-05 -0.00034259196 -0.00017022475
-0.00061980914 -0.00037499514 2.8823924e-05 -0.00031379313 -0.0004886904 -0.00019539683 -2.0778607e-05 -0.0005772022
-8.727134e-05 -0.00022961386 -0.000244192 -3.9629664e-05 -0.00018638464 -0.0003756957 -0.00028358123 -0.00016804917
-0.00023806658 -6.0409722e-05 -0.000299185 -0.00077158154 -0.00043656526 -0.00038728685 -2.1030057e-05 -0.0002805861

Const_140 f4 [512, 1, 1]
00000000: e6e6 0db7 82de beb8 5134 69b5 8b39 fa35
00000010: 2842 02b8 8f0e 36b7 f9f3 8fb8 3e16 e7b6
00000020: 4d8c 08b9 7027 c7b4 00e4 6bb8 27e1 5ab8
00000030: 2bbe 8eb7 3649 36b8 23a4 81b8 d673 cab7
00000040: 6c74 7435 2e45 2136 96e1 8fb9 47d2 8fb7
00000050: 9df3 33b8 6a95 fd36 0f56 8fb7 292d a3b7
00000060: 764d 32b8 7343 09b8 4050 1eb9 5d4b 0b38
00000070: dda6 7bb7 cef4 07b7 bebb e8b7 0973 1f35
00000080: 691f dbb6 9f87 52b6 29dc 2ab9 ec41 44b8
00000090: 91c8 d1b7 ac7e cbb8 e04b d536 79a7 25b8
000000a0: 89aa a7b6 2a8a 39b7 0958 bdb8 a703 5ab8
000000b0: 16f3 f2b7 d30e 0937 77ea 72b8 871f 4eb8
000000c0: 1d6d 6537 968a d5b6 0ecf b8b8 2a9c 8e34
000000d0: 101d 0ab8 0322 3938 e9e2 b0b8 5d8d 35b6
000000e0: bf0c f9b7 b1cb 76b7 864b 76b8 e50e 52b8
000000f0: f795 2ab8 a540 e4b8 52b9 a4b7 ffdc 49b7
00000100: 1324 59b7 924f eeb7 d590 aab6 6e67 88b7
00000110: 571f 6ab6 f615 a437 6a28 acb7 8b9a 4938
00000120: 6860 f337 cca1 1eb7 8af5 adb6 ef0e 3138
00000130: dc9b 3ab7 a06b c5b7 a753 d5b7 7f8a 09b9
00000140: 60c9 6a36 e8f3 bdb8 31e1 c7b7 609c d2b7
00000150: be90 6638 3824 0fb8 91a6 0ab7 fbf3 94b6
00000160: 55e3 5bb7 fb63 adb8 2401 17b9 da09 1eb9
00000170: d8d0 6eb7 7f1c 7cb8 578e 0bb8 ec70 ffb6
00000180: 4bad 1fb8 f27d 0236 9d46 4db7 3e67 85b8
00000190: 5e1a e8b7 6bcf da34 7b37 0ab7 1353 88b6
000001a0: 18c7 11b8 8362 4db7 d0af 5e38 318c aeb7
000001b0: d235 c3b8 0bb3 1db8 7e8b 0ab8 7ecb 6ab8
000001c0: 4419 a8b7 cc15 d7b7 0242 81b8 c8cd eab8
000001d0: 0d21 2735 7f08 41b7 cf9e d8b6 03d2 1db8
000001e0: ee11 91b8 7d71 86b7 4e7f 80b7 339c 00b8
000001f0: b3d0 4bb8 da01 d3b8 730c bdb7 33cc 5ab7
00000200: f3bc 3ab7 fece 54b8 da32 2eb9 dfe1 ebb7
00000210: 2909 89b5 c2d8 81b8 a654 5bb7 e1fe 53b4
00000220: 56cf 8235 6091 66b8 6ea7 1337 d21d c0b8
00000230: d10a 3fb8 4c4a efb6 70d7 7833 40e5 7fb8
00000240: b407 4734 6e01 78b8 02b5 8db7 75ea 9cb6
00000250: 61ec 1eb9 0660 acb6 9452 61b8 1fc4 abb7
00000260: f23e a2b7 d6a1 abb7 ced6 82b7 5293 76b5
00000270: d346 9035 9d26 7bb8 6346 6e39 cb0d a8b6
00000280: ca28 f0b8 b288 cfb8 c329 20b8 7d62 08b6
00000290: ce1d 68b7 7c29 b0b6 6272 08b7 cb5b 4638
000002a0: e8fe d5b7 5952 1ab8 69b8 85b7 19a7 81b7
000002b0: bb21 b8b7 74b3 aeb8 2c10 8ab7 856a 3fb7
000002c0: 72c0 60b8 87e0 e3b8 148b 15b7 8bb6 a1b7
000002d0: 9bac 68b8 62f2 39b8 5f19 9bb7 1c7f 73b8
000002e0: 3cf1 8f39 c37d 3e35 f533 0935 d984 ca37
000002f0: 2fcb 0d35 a0b2 04b8 d443 e7b7 62bf 8eb7
00000300: 9974 7435 57ff edb7 1ee1 cab8 9f3b 8bb6
00000310: 55b5 e334 8d0f 1c38 76f9 4db7 0454 38b8
00000320: 520d 11b8 2599 f9b8 807f a5b7 0306 ccb7
00000330: 6eed 6e35 6a87 2537 dcb0 2b38 bc55 eab8
00000340: c50c 5eb8 0634 5a35 dadc 5cb7 5b04 6bb8
00000350: 33af f8b7 9070 f7b7 ae29 d6b7 5955 9c36
00000360: 615e 21b6 a105 bb37 de5f 4cb8 af44 5237
00000370: 834d 4cb8 7ea1 15b8 6572 d8b8 9fad 0e38
00000380: 8e2a 48b8 c8d3 d9b5 e494 70b6 6456 9735
00000390: ee48 c4b8 e774 87b8 70da 53b6 aa95 91b7
000003a0: 122d 75b6 6e8d 63b7 34e2 dcb7 c80e 98b8
000003b0: 436d b1b7 cab9 8235 4de0 a7b8 f314 1136
000003c0: c5c6 24b8 de58 3537 8b24 3ab9 1d96 8db7
000003d0: 49df edb7 be1b abb8 806f 6fb8 96d2 0bb6
000003e0: cd1d 12b6 b18c 1434 cf3c b4b8 d8bd 68b8
000003f0: 20c6 67b7 5185 6eb7 46ca ea36 47cb fb35
-8.458015e-06 -9.101351e-05 -8.6875394e-07 1.8643199e-06 -3.1056028e-05 -1.0851435e-05 -6.864215e-05 -6.886926e-06
-0.00013022237 -3.7095333e-07 -5.6240708e-05 -5.218494e-05 -1.7016273e-05 -4.3460364e-05 -6.181772e-05 -2.4134217e-05
9.10665e-07 2.4031137e-06 -0.0002744316 -1.7144846e-05 -4.290381e-05 7.5573817e-06 -1.7087003e-05 -1.9452144e-05
-4.251065e-05 -3.2726162e-05 -0.0001509795 3.321037e-05 -1.4999617e-05 -8.103625e-06 -2.774398e-05 5.9399514e-07
-6.530365e-06 -3.137138e-06 -0.0001629448 -4.6791436e-05 -2.5008138e-05 -9.703389e-05 6.3567277e-06 -3.9495037e-05
-4.9968407e-06 -1.1059028e-05 -9.02862e-05 -5.197865e-05 -2.8961844e-05 8.169288e-06 -5.791566e-05 -4.914359e-05
1.3674869e-05 -6.364028e-06 -8.812371e-05 2.6563185e-07 -3.292883e-05 4.4139113e-05 -8.434599e-05 -2.7053386e-06
-2.9689048e-05 -1.4710168e-05 -5.8721307e-05 -5.0081773e-05 -4.0670824e-05 -0.00010883928 -1.963662e-05 -1.2031988e-05
-1.2942607e-05 -2.8408864e-05 -5.0832555e-06 -1.6260627e-05 -3.488696e-06 1.956055e-05 -2.0522817e-05 4.8066064e-05
2.901275e-05 -9.455205e-06 -5.1843863e-06 4.2213996e-05 -1.1122753e-05 -2.3534347e-05 -2.5430532e-05 -0.00013116932
3.4985933e-06 -9.0576534e-05 -2.3827512e-05 -2.5106769e-05 5.4971075e-05 -3.4127588e-05 -8.264223e-06 -4.439147e-06
-1.3106347e-05 -8.267906e-05 -0.00014400907 -0.00015071724 -1.4234531e-05 -6.010802e-05 -3.3272747e-05 -7.612738e-06
-3.8069946e-05 1.944482e-06 -1.2235393e-05 -6.3611646e-05 -2.7668833e-05 4.075658e-07 -8.2383585e-06 -4.062787e-06
-3.4756114e-05 -1.2241889e-05 5.3092663e-05 -2.0807698e-05 -9.3083494e-05 -3.7598464e-05 -3.3031676e-05 -5.5979464e-05
-2.0038926e-05 -2.5640147e-05 -6.163494e-05 -0.00011196319 6.2260443e-07 -1.1505675e-05 -6.4557894e-06 -3.7627306e-05
-6.9174785e-05 -1.6026892e-05 -1.531807e-05 -3.066305e-05 -4.8593338e-05 -0.00010061609 -2.2536353e-05 -1.3041356e-05
-1.1130457e-05 -5.0737515e-05 -0.00016612877 -2.8119362e-05 -1.0209961e-06 -6.1915736e-05 -1.3073126e-05 -1.9743631e-07
9.746097e-07 -5.4971664e-05 8.8008655e-06 -9.160828e-05 -4.5548022e-05 -7.1314043e-06 5.793794e-08 -6.1010243e-05
1.8536122e-07 -5.912914e-05 -1.6892798e-05 -4.6764567e-06 -0.00015156112 -5.137178e-06 -5.3721087e-05 -2.0476115e-05
-1.9341216e-05 -2.046015e-05 -1.5597234e-05 -9.185652e-07 1.0749449e-06 -5.9879025e-05 0.0002272367 -5.008396e-06
-0.00011451689 -9.895991e-05 -3.8185866e-05 -2.0322907e-06 -1.3835217e-05 -5.250038e-06 -8.1328635e-06 4.7292368e-05
-2.5510279e-05 -3.6793153e-05 -1.5940708e-05 -1.545581e-05 -2.1950216e-05 -8.330392e-05 -1.6458413e-05 -1.1409288e-05
-5.358499e-05 -0.00010866025 -8.913474e-06 -1.9277699e-05 -5.547386e-05 -4.4333174e-05 -1.8489254e-05 -5.8054095e-05
0.0002745482 7.0963523e-07 5.1112085e-07 2.4142138e-05 5.2822264e-07 -3.163761e-05 -2.756893e-05 -1.7016839e-05
9.1066755e-07 -2.8371504e-05 -9.674042e-05 -4.1494636e-06 4.241398e-07 3.720778e-05 -1.2277034e-05 -4.3947264e-05
-3.45831e-05 -0.000119017706 -1.9728905e-05 -2.4321494e-05 8.9007415e-07 9.866295e-06 4.093429e-05 -0.00011173959
-5.2940817e-05 8.128703e-07 -1.3164443e-05 -5.6032422e-05 -2.9645487e-05 -2.949711e-05 -2.5530197e-05 4.659098e-06
-2.4045805e-06 2.2294758e-05 -4.8726673e-05 1.2532967e-05 -4.870958e-05 -3.567477e-05 -0.0001032099 3.4017135e-05
-4.7723348e-05 -1.6229396e-06 -3.5849453e-06 1.127552e-06 -9.3595925e-05 -6.4590764e-05 -3.1568597e-06 -1.735504e-05
-3.653408e-06 -1.35631835e-05 -2.6331378e-05 -7.250678e-05 -2.1150923e-05 9.739827e-07 -8.00496e-05 2.1618878e-06
-3.9285766e-05 1.0809132e-05 -0.00017751956 -1.6878412e-05 -2.8356577e-05 -8.159083e-05 -5.7085883e-05 -2.0835191e-06
-2.1773042e-06 1.3834757e-07 -8.594395e-05 -5.5489916e-05 -1.38148025e-05 -1.4216946e-05 6.997291e-06 1.8760119e-06

Const_16 f4 [13, 1, 1]
00000000: 083e 563d 90bc ca3d aba3 2e3c 3dbb 323d
00000010: 418e 9f3d aff9 143d 7dd1 103e 89ee 4a3d
00000020: 5d21 a73d 0b4d 8b3e 1ba5 8b3c a1ed c43c
00000030: aadd ac3c
0.05230525 0.09899247 0.010659139 0.043635596 0.07790805 0.03637093 0.14142413 0.04954389
0.081606604 0.27207217 0.017046502 0.024039092 0.021101791

Const_19 f4 [13, 1, 1]
00000000: 8409 053d 8789 c33d b328 883a dab8 acbc
00000010: f196 e53d 2cbb 493d 816a 39bd 93d8 023c
00000020: f86e f63c cce4 f43b 8bb5 b6bb d997 19bd
00000030: c5f0 eabc
0.032479778 0.09547716 0.0010388106 -0.021084238 0.112104304 0.049250767 -0.045267586 0.007986206
0.03008221 0.007473564 -0.005575841 -0.03749833 -0.028679261

Const_2 f4 [32, 1, 1]
00000000: 9aca 1a3e 9934 3c3e 53f0 a33d 0563 863c
00000010: 1d64 c13e 31d3 2a3e e9ee 893e 6578 453c
00000020: c5e9 463e aedd 9cbc d25f 063f 2d30 b039
00000030: fc0c 97bd d5fc 673d 037c ea3b 4efa e7bc
00000040: 95af d83c d7a4 3fbb 7c5f 3b3e b337 0c3c
00000050: 10ce f73d 144f 053c b11d fbbc efd9 e3bb
00000060: 69ce e83e 5d05 e23e 7e4d fbbd 77d4 ba3d
00000070: 05c7 3f3e 501c 383d 6581 663c 1119 d93c
0.15116349 0.1837944 0.080048226 0.016404638 0.37771693 0.16682126 0.26940086 0.01205263
0.19425113 -0.019148674 0.5248996 0.0003360523 -0.073755234 0.056637604 0.0071558966 -0.028317597
0.026450912 -0.002924254 0.18298143 0.008558202 0.1209985 0.0081365295 -0.030653806 -0.00695347
0.45469978 0.44144717 -0.1227064 0.09122556 0.18728264 0.044948876 0.014068936 0.02650121

Const_24 f4 [26, 1, 1]
00000000: 51fd 9b3d 9a18 d33c 20ce 923e 38d7 573d
00000010: 0053 b0bd e6c6 60bb 562d 6f3d 73eb f23d
00000020: e350 203e 92f5 e53d 0efa 163c 7a00 2d3c
00000030: 836f 0e3b 8b6f 17bd f678 773d b949 53ba
00000040: e2a9 5b3c f4c8 c63d fa0b 283d 2264 043d
00000050: 5a05 99bc b2db 3d3d f244 503c f8f0 143d
00000060: 707e be3c 3c9f 053c
0.07616676 0.025768567 0.28672886 0.052695483 -0.08609581 -0.003429824 0.058392845 0.118613146
0.15655856 0.112284794 0.009214891 0.010559196 0.0021733947 -0.03697161 0.06041809 -0.0008059997
0.013407202 0.097062975 0.041027047 0.032322057 -0.01867931 0.046352096 0.01271175 0.03636262
0.02325365 0.00815564

Const_27 f4 [26, 1, 1]
00000000: 6c9f 7f3d 39f0 da3a 2f54 973e 68d5 823d
00000010: cbd8 963d 3d21 2bbe c96b 033d a2a4 89bb
00000020: 7413 cc3c c503 c23d 4644 51bd e740 2ebc
00000030: ca78 60bd 4d85 52bd 730c d4bd f688 863c
00000040: 127d 2abd 85e7 7a3d 665f f2bb d4e9 9ebd
00000050: be06 8d3b c470 423a a345 873b f826 993d
00000060: 9c97 12bb 183d 013c
0.062407896 0.0016703672 0.29556414 0.0638836 0.07365569 -0.16711898 0.032085214 -0.004200534
0.02491162 0.09473375 -0.0510905 -0.010635591 -0.054802693 -0.051396657 -0.10353937 0.01642273
-0.041623183 0.06125595 -0.0073966263 -0.07759443 0.0043037822 0.0007417316 0.0041281744 0.07478136
-0.0022368198 0.007888101

Const_32 f4 [13, 1, 1]
00000000: c8f6 683d 4e0b e9bd 8376 14bd 4659 b7bc
00000010: b5e1 bd3c 452b afb9 2493 f13c f3ca 71bc
00000020: c4ec 8bbb cfe2 5abd 62f8 883c 0c10 8d3d
00000030: acab e33c
0.056875974 -0.11379109 -0.036245834 -0.022381436 0.023178915 -0.0003341084 0.029489107 -0.0147578595
-0.004270168 -0.053438958 0.01672 0.06887826 0.02779182

Const_35 f4 [13, 1, 1]
00000000: 4df0 683d 783e 0ebb 92e0 c43c c423 16be
00000010: 5b09 9e3c 3833 623d 0588 e63c 4eb0 b2bd
00000020: 98d6 723c 850d a6bc 6b9c 923c 5ddc 6d3c
00000030: 9b7b 4e3d
0.056869794 -0.0021704715 0.024032865 -0.14662081 0.01929157 0.055224627 0.028141031 -0.08725034
0.014821671 -0.020270118 0.017896852 0.014517871 0.050410848

Const_40 f4 [52, 1, 1]
00000000: 6659 a9bb f9df efbc d4c8 253c 27e1 5c3c
00000010: 3cc1 8e3c 0134 923c 359b 723d d272 d03c
00000020: 2516 cfbc d5b0 9abc d12f 0cbd 445a ebbc
00000030: 3c0a 3a3b 5109 cabd f28c 0c3d 7997 a5bd
00000040: b057 1bbe 13a8 8cbd 9165 b1bb 628b 8c3d
00000050: d6e2 713c a6b9 99bd 8092 6ebc 51f9 21be
00000060: 9487 10bd 1b20 3a3d 342c 1fbb 2f19 a9bc
00000070: 92be 8f3c 5987 f1bb fcba d43c 1813 2c3c
00000080: e43e 433d 20e0 ffbc 7247 e23b 179d 383c
00000090: 0cdd 14be 8fe8 2b3c 5db6 70bd 85d8 653c
000000a0: 17ea a53c 4b98 a63c 9345 b03c 2cb1 d63c
000000b0: 8e93 573c 30cb 41bc fc22 36bd 9509 f33b
000000c0: 7e19 043b b725 2bbd 7f0b 1abb 0703 5fbc
-0.005168128 -0.029281603 0.010118682 0.013481415 0.017426126 0.017847063 0.05923005 0.025445376
-0.025279114 -0.018883148 -0.03422529 -0.028729565 0.0028387448 -0.09865058 0.034314103 -0.08085532
-0.15170169 -0.06867995 -0.005413719 0.06862523 0.014763555 -0.07506113 -0.0145612955 -0.15817763
-0.035285547 0.045440774 -0.0024287822 -0.020641891 0.017546926 -0.007370871 0.025968067 0.010502599
0.0476674 -0.0312348 0.0069054896 0.011267922 -0.14537448 0.010492458 -0.058767665 0.014028673
0.020253224 0.02033629 0.02151755 0.026207529 0.013157738 -0.011828229 -0.044466957 0.0074169138
0.0020156796 -0.041784015 -0.0023505387 -0.013611562

Const_43 f4 [52, 1, 1]
00000000: 7634 0e3b d874 323d 5bfc ddbb 7615 713c
00000010: b769 5a3b 9b28 a4bc 103f 18bc a6ae 293c
00000020: f4e0 163b 0cfd 893b b39c f63c 00b3 15bc
00000030: 0309 cd3c 4e18 263d 049d febb c81a 9fbd
00000040: 2a81 fbbc f831 7dbd dd69 0dbd d625 6cbd
00000050: 6e5b 123d 3d1e 76bc 14c3 99bc b9dc 84bd
00000060: 4a7e 4f3b c698 cbbd b115 203b 4c99 19bd
00000070: f09d 6dbd 3958 2fbc db86 c43a 0ed7 db3b
00000080: c478 12bd 2aa1 68bd 9036 eabc 0da8 8abc
00000090: 4c6f 80bd 7141 18bc 0263 673a a654 0cbd
000000a0: b72f 61bd 61a0 31bd 76f2 bb3c c922 10bc
000000b0: ba38 c4bb 0c44 eebc 76af a43c c151 a13c
000000c0: c250 773b 0a8c cebc 4000 0e3d 7ccb de3b
0.002169875 0.043568462 -0.006774468 0.014714589 0.003332717 -0.020038893 -0.009292379 0.010356581
0.0023022266 0.0042110737 0.030104017 -0.009136915 0.025028711 0.040550523 -0.0077701826 -0.0776878
-0.030701239 -0.061815232 -0.034524787 -0.05765327 0.035731725 -0.015021858 -0.018769778 -0.06487412
0.0031660968 -0.099412486 0.0024426992 -0.03749971 -0.05801195 -0.010702186 0.0014993803 0.006708986
-0.035759702 -0.056794323 -0.02859047 -0.016925836 -0.06271228 -0.009292946 0.0008826704 -0.034260415
-0.054977145 -0.04336584 0.022942763 -0.008797356 -0.0059882076 -0.029085182 0.020103198 0.019692304
0.0037737344 -0.02521326 0.034668207 0.0067991596

Const_47 f4 [16]
00000000: 7271 22bf ea4f 13bf 7182 1d3f 8cdc d53d
00000010: 22e4 6b3f e02a 703e 80ad 36bf 161f fcbe
00000020: 7522 de3e 13c8 fb3e 7644 84bf a296 afbe
00000030: 8446 d73f b57f 0f3f 6aac d93e 4f40 01bf
-0.63454354 -0.57543814 0.6152716 0.104424566 0.9214498 0.23453856 -0.7135849 -0.49242467
0.43385664 0.49176082 -1.0333393 -0.3429461 1.6818395 0.5605424 0.42514354 -0.5048875

Const_5 f4 [32, 1, 1]
00000000: 575f 46be 5804 753d 7592 123c a8da 80bd
00000010: d889 023e 9e8a 4b3e 3a90 73bd d42b 0a3d
00000020: ac32 edbb 172b edbd 9d74 b73d 0597 893c
00000030: cdb8 80bd 8d2a 72bd db18 34bc 13c0 22ba
00000040: 0f9f 6a3c 6693 18bd 8e36 463d f737 03bc
00000050: 26d3 ad3e 4bc4 143e 3bdb 923c a561 443d
00000060: d784 be3c 5702 633e 38a9 79bd 67a8 2cbd
00000070: c23f 4ebd d13b dcbc 0f5f 2a3d 627d e73b
-0.19372307 0.059818596 0.008946051 -0.06291705 0.12747896 0.19877097 -0.059463717 0.033733204
-0.0072387066 -0.11580484 0.08957789 0.016795645 -0.06285248 -0.05912261 -0.010992254 -0.0006208431
0.014320149 -0.037249945 0.04839187 -0.0080089485 0.33950156 0.14528005 0.017926803 0.047944684
0.023256702 0.22168861 -0.060952395 -0.04215279 -0.050353773 -0.026883991 0.04159456 0.0070645073

Const_52 f4 [231, 1, 1]
00000000: a5b5 49bb eb65 adbc 3a95 5fbd 6a77 51bc
00000010: 2d76 18bc 264e c2bd 7f45 653c ce7c 21bc
00000020: 2946 10bd a7d5 24bc 2ec9 0dbd 9d35 cbbc
00000030: 41ca 7fbd b0eb 57bd ceda 0fbd 2804 cbba
00000040: 6455 32b9 28e3 b6bc 3cc2 78bd 8c81 8a3b
00000050: 5677 87bc 7596 dbbc 995e 6fbb 1935 ebbb
00000060: 5fbc 41bd e427 87bc 8803 9dbc bbd3 d9bd
00000070: ef3c 27bd 50bd fbbc adcf 15ba e405 16bd
00000080: 83c7 edbb 21ad 05bd 8ac4 1abd 91b0 8ebd
00000090: e86c 11be 3bee 45bc 3ec3 e33a 1875 8ebb
000000a0: c4c5 453c 9c9a 0bbc c1a9 15ba c225 95bd
000000b0: c833 60bb 459f 3abd 2a1f c8bd d342 d5bd
000000c0: 6d96 d5bd adb4 62bc 12fb 483b 0eb3 4d3c
000000d0: 671b 25be daed 87bd 79f4 413c b5cc 53bc
000000e0: 0736 2c3c de04 0bbb 9246 843b 8234 1b3c
000000f0: 0890 3abc 2dff 5bbc 1748 e83b 2b59 d3bc
00000100: d8a7 bdbb 1cef b8bb 4e3e 72bc d8f5 88bc
00000110: 5119 09bd 698e 6ebc d1a5 2cbc 186b 2cbd
00000120: adcf f3bc 1e5a 51bd 1132 18bd 394e dfbc
00000130: 2cf4 1bbd b3fe 533c 5c48 85bc 884c 103c
00000140: ea0d a8bb ed97 a0bc 4c29 67bc 2313 8b3b
00000150: e89d 14ba 3061 b4bd 7b86 8e3b bf1c 6abc
00000160: af38 00be be26 35bc 700b bbbc ab66 b3bc
00000170: a86a 65bd 1a2d 90bd d5f5 f93b b7ac 2ebd
00000180: 1e5e 12be c2f0 933b a1fc b3bc b339 5d3b
00000190: 38ff 67bc 2d00 4ebd d4c0 123c 93f9 0cbb
000001a0: 3eb7 c4bc b29c 54bd 2ec2 d2bb fadd b1bd
000001b0: 6593 cebd 3456 f8bc 809e c2bd 1f75 e5bd
000001c0: 021d e5bc 7f3a 733c 549f f6bd a2f7 6bbd
000001d0: 1f34 b3bc 5ea2 01be d86b 4cbd f9b2 2f3c
000001e0: b75a 393c cbc6 393c 018e 2cbc 072f cebb
000001f0: 3428 6639 dac6 313c 7951 16b9 4a4f 34bd
00000200: 5110 8fbd 9596 b63b e802 edbd b2e8 623c
00000210: 0ea5 4dbc 1680 84bb 8290 25bc 76dd 953c
00000220: f8ad f53c 3e46 3dbc f124 d6bc b64e b4bd
00000230: 228a 8c3b 3209 4e3b faf6 7d3b 3334 6bbd
00000240: 88c2 aabb 87d2 0abd d9da 8c3c be76 813c
00000250: b23f 833c b7aa 69bd e3c9 a23b a0a4 d5bc
00000260: 3a4a 163c 0f19 22ba 3831 893b 400a 033c
00000270: de32 38bd d506 55bd eb29 4b3b 9cb8 b3bb
00000280: bfdd bcbc 332e c43a b981 383a 8925 93bd
00000290: fbe9 893b b1e8 36bd 2665 933c c411 c4ba
000002a0: 2bd8 2ebd cb6a e33c ca43 71bc 1d1e b7bc
000002b0: 16c9 38bc 331e f53b a4b7 0f3c 228f 3abc
000002c0: 0307 123a d938 d339 a45e 63bb 454c 88bd
000002d0: dda4 b13c df32 86bc 7005 70bc b628 cfbc
000002e0: 5128 3abd 6df8 1f3c 33c3 12bd 8988 03bc
000002f0: 2b20 74bb 4dfa 22bd b399 d3bd 466e cbbd
00000300: 8cc5 983c 50a1 2dbc c71e bbbc 7777 0fbd
00000310: a1fe 833c 1e8b 31bd 166b d4bd 3d9e 31bd
00000320: dbe7 d8ba 05b3 a63a 3f44 c6bd f30e 16bd
00000330: dff1 b0bd f48d 72bd e747 813c f659 953a
00000340: 877a 71bc 5eda 00be 6abf a8bd 9a48 ce3b
00000350: abca 60bd 9146 823c 985e cdbd 14b7 903b
00000360: 5975 b3bc a9e1 0a3c ee18 0bbd 49e8 fd3a
00000370: dd2c 05be fc49 d8bd 9c63 94bc dfc1 09bd
00000380: 8785 b8bd 5750 d13b 0256 8fbc d50e 75bd
00000390: 2f3d 5abd aae2 cebc 8587 18bb
-0.0030778435 -0.021166762 -0.054585673 -0.012784818 -0.009305519 -0.09487562 0.01399362 -0.009856416
-0.03522316 -0.010060704 -0.034615688 -0.024805838 -0.062448744 -0.052715003 -0.035120778 -0.001548891
-0.00017007213 -0.022325113 -0.06073211 0.004226869 -0.016536396 -0.026805142 -0.003652489 -0.0071779606
-0.047298785 -0.016498514 -0.019166723 -0.106360875 -0.040829595 -0.03072992 -0.0005714845 -0.03662671
-0.0072564497 -0.03263581 -0.03778509 -0.06967271 -0.142017 -0.012080724 0.0017376912 -0.0043474548
0.012071077 -0.0085207485 -0.0005709194 -0.07282592 -0.0034210552 -0.045562048 -0.09771569 -0.10413136
-0.10429082 -0.013837022 0.0030667228 0.012554897 -0.16123734 -0.066371635 0.011838072 -0.012927224
0.010510928 -0.0021212618 0.004036733 0.009472968 -0.011386879 -0.013427538 0.007088672 -0.025799355
-0.005787831 -0.0056437384 -0.014785362 -0.01671879 -0.03347141 -0.01456032 -0.010537581 -0.04209432
-0.029762113 -0.051111333 -0.037157122 -0.02725898 -0.038074657 0.012939143 -0.016269855 0.008807309
-0.005128612 -0.019603694 -0.014108967 0.0042442246 -0.0005669282 -0.088075995 0.0043495274 -0.01428908
-0.12521623 -0.0110566 -0.022832602 -0.021899542 -0.05600992 -0.070398524 0.0076281824 -0.042645182
-0.14293715 0.0045147846 -0.021971049 0.0033756315 -0.01415997 -0.050293136 0.008957107 -0.0021511063
-0.024013158 -0.05190725 -0.0064318394 -0.08684917 -0.10086707 -0.030314542 -0.09502888 -0.1120398
-0.027967934 0.0148454895 -0.12042108 -0.057609208 -0.02187544 -0.12659594 -0.049907535 0.010723823
0.011313132 0.0113389 -0.010531903 -0.006292227 0.00021949486 0.010850633 -0.00014335466 -0.04402093
-0.06985534 0.00557215 -0.1157282 0.013849424 -0.012551559 -0.0040435893 -0.010105254 0.018294077
0.029990181 -0.011552392 -0.026140662 -0.088040754 0.0042889277 0.0031438586 0.0038751946 -0.057422828
-0.005211178 -0.03389218 0.017194198 0.015803691 0.016021583 -0.057047572 0.0049679144 -0.026079476
0.00917297 -0.00061835436 0.0041867755 0.007998049 -0.044970386 -0.05200847 0.0031000327 -0.0054846536
-0.023054956 0.0014967382 0.0007038373 -0.07184894 0.004208801 -0.044655506 0.017992567 -0.0014958908
-0.042686623 0.027760884 -0.014725635 -0.022353226 -0.011278411 0.0074804067 0.008771811 -0.011386665
0.0005570503 0.0004028741 -0.0034693861 -0.06655172 0.021685058 -0.01638168 -0.014649734 -0.025287967
-0.045448605 0.009763819 -0.035830688 -0.008028158 -0.003725062 -0.039789487 -0.1033205 -0.09933142
0.018648885 -0.010597542 -0.022841824 -0.03502604 0.016112627 -0.043345563 -0.103719875 -0.0433638
-0.001654859 0.0012718147 -0.09680986 -0.03663535 -0.08639883 -0.05921741 0.015781356 0.0011394608
-0.014738685 -0.125833 -0.08239634 0.006295276 -0.05488078 0.01590279 -0.10027808 0.004416356
-0.021906542 0.008476653 -0.03395932 0.0019371595 -0.13005395 -0.105609864 -0.018113904 -0.033632156
-0.09009843 0.006387751 -0.017497066 -0.059828598 -0.053281005 -0.025254566 -0.0023274135
